TEST_RUN_CHECKPOINTS/best_model.pth.tar (torch, 117974 bytes, 30 tensors)

conv.weight f4 [32, 38, 2, 2]
0.024557814 -0.07016257 0.07272372 -0.06648918 0.009728393 -0.019025115 0.080702044 -0.004262935
0.046540353 -0.04462224 0.005350115 0.021786287 0.039149024 0.07767423 0.07774007 0.00041269866
-0.05950414 -0.036956128 0.023154674 0.03122271 0.032620512 -0.07766995 -0.03419906 0.010962534
0.00568225 0.030567056 0.05472392 -0.02557552 -0.0084319245 -0.047781292 -0.029902533 0.024817169
0.027952874 0.041916635 0.036208607 0.039234065 -0.08018932 0.019870808 -0.011608656 0.0014502178
0.04109271 -0.05622157 0.050530948 -0.049233396 -0.07484646 0.018132199 0.0760921 -0.03877859
0.07033178 -0.06499198 0.058040764 0.024995478 0.001558609 -0.012587319 0.07002346 -0.07588578
0.06427779 0.035877775 0.07562934 0.06992927 -0.049734626 -0.037870046 -0.048692767 -0.033942826
-0.07000581 0.073559396 -0.02691697 0.044323016 0.030131217 -0.045919023 0.0774115 0.03823678
-0.0045180167 -0.06648492 0.04618771 -0.07713431 -0.070783615 0.08016314 -0.03054527 0.028952045
0.070429325 -0.05305255 -0.023329059 0.06940966 0.025396215 -0.071889006 0.04083896 0.005655428
0.03191656 -0.0080884565 -0.063260935 0.052266784 0.012304467 -0.02206764 -0.057811566 0.033025496
0.010902643 0.036076393 -0.039125886 -0.06708809 0.011223263 0.07312961 0.06716741 0.0312563
-0.032450903 0.05696778 -0.07595196 0.037556805 -0.0673201 -0.041891236 0.015519382 0.07044804
0.07743652 0.037170187 0.06735641 -0.0058377977 0.00067362067 0.059873667 -0.0721387 -0.020530865
-0.012331589 -0.012691001 -0.078479394 0.060064293 0.07608061 -0.04057766 0.023451412 0.07802875
0.045353543 0.01656894 -0.067666665 -0.024538726 0.04894685 0.035683233 0.009647878 -0.021331005
-0.076436825 -0.019033326 0.07118125 0.04507682 -0.07960211 -0.054924387 0.041928004 0.0228129
0.06306773 0.039429776 0.022357415 -0.05241382 -0.07566933 -0.028701324 -0.07794004 -0.026859313
-0.061741788 0.0432232 0.0548817 0.00094364135 -0.0211316 -0.07187667 0.055728544 0.0050210734
-0.027677294 -0.006133045 -0.07580613 -0.03775212 -0.038759734 -0.06457356 -0.0777077 0.06895517
0.07216027 0.05661002 0.024944946 0.07565412 0.06511449 -0.072975956 0.053032078 -0.073659554
-0.045582876 -0.053424276 -0.043864284 -0.031649545 0.020469446 -0.06059655 -0.061618872 0.029825982
0.02222226 0.015990376 0.02945544 0.0030476968 0.07364004 -0.024305748 0.046944514 -0.052236557
0.010232465 -0.0124948425 0.05903371 0.04514498 -0.04764103 0.013543811 -0.0810136 0.050936278
-0.0485205 -0.061297838 -0.07849796 -0.0065544555 -0.011608501 -0.04441873 0.01688164 -0.07939463
-0.049170878 -0.068348594 -0.056677096 0.01343803 0.027098266 0.07582388 0.07650739 -0.04294764
0.07933759 -0.078850575 -0.07348629 -0.073225826 0.017828057 0.037842035 0.00074406044 0.067969695
-0.029756848 0.029065106 0.07886311 0.06322758 -0.029197846 0.07083253 -0.031331275 -0.0027974688
-0.01087498 -0.014518499 -0.021252744 -0.06985516 -0.016989606 -0.01855973 -0.07864444 0.019325199
-0.08015016 -0.05699996 0.019833505 -0.007315002 -0.011122694 -0.030381484 0.015000971 -0.011812878
0.052914646 0.005589716 0.011118933 -0.04606329 -0.06557546 -0.044283576 0.028035652 0.051230077
00000000: 782d c93c 65b1 8fbd 2cf0 943d 7b2b 88bd
00000010: d663 1f3c 8fda 9bbc 1d47 a53d 17b0 8bbb
00000020: 19a1 3e3d cfc5 36bd 0450 af3b 2879 b23c
00000030: ba5a 203d ab13 9f3d 3036 9f3d 7a5f d839
00000040: 9dba 73bd 4f5f 17bd dfae bd3c c5c6 ff3c
00000050: 169d 053d 6c11 9fbd 5014 0cbd 339c 333c
00000060: 2b32 ba3b c367 fa3c 3026 603d c183 d1bc
00000070: 0e26 0abc 51b6 43bd 28f6 f4bc 604d cb3c
00000080: 6dfd e43c c7b0 2b3d 7a4f 143d e6b3 203d
00000090: 4c3a a4bd 1bc8 a23c 3b32 3ebc 3c15 be3a
000000a0: d450 283d 9748 66bd 8af9 4e3d f5a8 49bd
000000b0: 1a49 99bd fa89 943c 2dd6 9b3d 4cd6 1ebd
000000c0: 1c0a 903d 841a 85bd 27bc 6d3d 51c3 cc3c
000000d0: 3d4a cc3a 0b3b 4ebc 7668 8f3d 016a 9bbd
000000e0: 13a4 833d 93f4 123d 8ee3 9a3d 1437 8f3d
000000f0: 89b6 4bbd 9f1d 1bbd 1172 47bd a207 0bbd
00000100: 355f 8fbd 4fa6 963d fa80 dcbc 0d8c 353d
00000110: bed5 f63c 9615 3cbd ec89 9e3d 2b9e 1c3d
00000120: df0b 94bb 3f29 88bd 532f 3d3d 98f8 9dbd
00000130: 00f7 90bd 932c a43d 133a fabc d72c ed3c
00000140: 403d 903d a14d 59bd 951c bfbc a726 8e3d
00000150: b90b d03c 8b3a 93bd c146 273d 2b51 b93b
00000160: f0ba 023d 7285 04bc f38e 81bd b215 563d
00000170: ad98 493c 32c7 b4bc d2cb 6cbd be45 073d
00000180: 00a1 323c d7c4 133d 7742 20bd 7b65 89bd
00000190: c7e1 373c fac4 953d 118f 893d 9b06 003d
000001a0: 3deb 04bd 0c57 693d b48c 9bbd 2ad5 193d
000001b0: 1fdf 89bd 2596 2bbd 0245 7e3c 1047 903d
000001c0: 0a97 9e3d c43f 183d 28f2 893d ff4a bfbb
000001d0: eb95 303a 173e 753d 74bd 93bd 5830 a8bc
000001e0: 6f0a 4abc ebed 4fbc ceb9 a0bd fa05 763d
000001f0: 27d0 9b3d c334 26bd 2d1d c03c 8acd 9f3d
00000200: a3c4 393d 96bb 873c d294 8abd 7005 c9bc
00000210: 7e7c 483d 9528 123d 2212 1e3c 5cbe aebc
00000220: e98a 9cbd c7eb 9bbc 7ac7 913d 79a2 383d
00000230: 6e06 a3bd 65f8 60bd b3bc 2b3d 1ee2 ba3c
00000240: a729 813d 1e81 213d e626 b73c e0af 56bd
00000250: 86f8 9abd 0a1f ebbc 079f 9fbd 1008 dcbc
00000260: f5e4 7cbd cf0a 313d a2cb 603d b35e 773a
00000270: 2d1c adbc 1334 93bd 9d43 643d d187 a43b
00000280: 7ebb e2bc b6f7 c8bb 3f40 9bbd f8a1 1abd
00000290: 87c2 1ebd 253f 84bd 3725 9fbd 5e38 8d3d
000002a0: c3c8 933d e9df 673d 5859 cc3c 8cf0 9a3d
000002b0: bf5a 853d 6b74 95bd 2a38 593d d2da 96bd
000002c0: 1cb5 3abd 6ad3 5abd 09ab 33bd f4a2 01bd
000002d0: 8aaf a73c 1734 78bd 1264 7cbd 9e55 f43c
000002e0: 750b b63c 40fe 823c 894c f13c debb 473b
000002f0: 97d0 963d d91c c7bc e448 403d 00f6 55bd
00000300: 12a6 273c 2bb7 4cbc 55cd 713d f1e9 383d
00000310: 3e23 43bd dce6 5d3c 75ea a5bd 8fa2 503d
00000320: 6fbd 46bd 7113 7bbd 8ac3 a0bd c2c6 d6bb
00000330: 9531 3ebc 6af0 35bd 5d4b 8a3c a799 a2bd
00000340: 6767 49bd 59fa 8bbd 3e26 68bd 2f2b 5c3c
00000350: 2ffd dd3c 8d49 9b3d e8af 9c3d dde9 2fbd
00000360: bf7b a23d 697c a1bd fb7f 96bd 6cf7 95bd
00000370: 250c 923c 4000 1b3d 0d0d 433a b233 8b3d
00000380: a2c4 f3bc f219 ee3c fb82 a13d 767d 813d
00000390: 5230 efbc a510 913d 3955 00bd bd55 37bb
000003a0: f92c 32bc 00df 6dbc 3c1a aebc 3910 8fbd
000003b0: c92d 8bbc 930a 98bc 5610 a1bd e14f 9e3c
000003c0: c425 a4bd ca78 69bd e079 a23c afb2 efbb
000003d0: f63b 36bc 97e2 f8bc a2c6 753c cd8a 41bc
000003e0: 07bd 583d f029 b73b 2f2c 363c dcac 3cbd
000003f0: 6d4c 86bd b262 35bd 06ab e53c a1d6 513d

conv.bias f4 [32]
0.06596707 0.06104115 0.021566981 0.012135866 0.040265154 -0.08036411 -0.040708967 -0.058827214
0.04162478 -0.04246592 0.016947215 0.030193778 -0.06725846 -0.020206407 -0.019113753 -0.06389559
-0.07372136 0.052530374 -0.055809896 -0.06740819 -0.021152629 0.019545548 -0.068687394 0.07762181
-0.07623032 -0.021620605 0.008240011 -0.048339523 -0.05458792 0.06339427 -0.037269186 0.04436613
00000000: be19 873d 4906 7a3d 3dad b03c 83d5 463c
00000010: 13ed 243d f095 a4bd 72be 26bd cef4 70bd
00000020: bf7e 2a3d bff0 2dbd e3d4 8a3c f158 f73c
00000030: cebe 89bd e887 a5bc 7294 9cbc b1db 82bd
00000040: 39fb 96bd 172a 573d eb98 64bd 4e0d 8abd
00000050: 4748 adbc fc1d a03c faab 8cbd 2ff8 9e3d
00000060: a41e 9cbd b21d b1bc 1c01 073c aaff 45bd
00000070: 9597 5fbd dbd4 813d 93a7 18bd 42b9 353d

bn.weight f4 [32]
1.0 1.0 1.0 1.0 1.0 1.0 1.0 1.0
1.0 1.0 1.0 1.0 1.0 1.0 1.0 1.0
1.0 1.0 1.0 1.0 1.0 1.0 1.0 1.0
1.0 1.0 1.0 1.0 1.0 1.0 1.0 1.0
00000000: 0000 803f 0000 803f 0000 803f 0000 803f
00000010: 0000 803f 0000 803f 0000 803f 0000 803f
00000020: 0000 803f 0000 803f 0000 803f 0000 803f
00000030: 0000 803f 0000 803f 0000 803f 0000 803f
00000040: 0000 803f 0000 803f 0000 803f 0000 803f
00000050: 0000 803f 0000 803f 0000 803f 0000 803f
00000060: 0000 803f 0000 803f 0000 803f 0000 803f
00000070: 0000 803f 0000 803f 0000 803f 0000 803f

bn.bias f4 [32]
0.0 0.0 0.0 0.0 0.0 0.0 0.0 0.0
0.0 0.0 0.0 0.0 0.0 0.0 0.0 0.0
0.0 0.0 0.0 0.0 0.0 0.0 0.0 0.0
0.0 0.0 0.0 0.0 0.0 0.0 0.0 0.0
00000000: 0000 0000 0000 0000 0000 0000 0000 0000
00000010: 0000 0000 0000 0000 0000 0000 0000 0000
00000020: 0000 0000 0000 0000 0000 0000 0000 0000
00000030: 0000 0000 0000 0000 0000 0000 0000 0000
00000040: 0000 0000 0000 0000 0000 0000 0000 0000
00000050: 0000 0000 0000 0000 0000 0000 0000 0000
00000060: 0000 0000 0000 0000 0000 0000 0000 0000
00000070: 0000 0000 0000 0000 0000 0000 0000 0000

bn.running_mean f4 [32]
0.0 0.0 0.0 0.0 0.0 0.0 0.0 0.0
0.0 0.0 0.0 0.0 0.0 0.0 0.0 0.0
0.0 0.0 0.0 0.0 0.0 0.0 0.0 0.0
0.0 0.0 0.0 0.0 0.0 0.0 0.0 0.0
00000000: 0000 0000 0000 0000 0000 0000 0000 0000
00000010: 0000 0000 0000 0000 0000 0000 0000 0000
00000020: 0000 0000 0000 0000 0000 0000 0000 0000
00000030: 0000 0000 0000 0000 0000 0000 0000 0000
00000040: 0000 0000 0000 0000 0000 0000 0000 0000
00000050: 0000 0000 0000 0000 0000 0000 0000 0000
00000060: 0000 0000 0000 0000 0000 0000 0000 0000
00000070: 0000 0000 0000 0000 0000 0000 0000 0000

bn.running_var f4 [32]
1.0 1.0 1.0 1.0 1.0 1.0 1.0 1.0
1.0 1.0 1.0 1.0 1.0 1.0 1.0 1.0
1.0 1.0 1.0 1.0 1.0 1.0 1.0 1.0
1.0 1.0 1.0 1.0 1.0 1.0 1.0 1.0
00000000: 0000 803f 0000 803f 0000 803f 0000 803f
00000010: 0000 803f 0000 803f 0000 803f 0000 803f
00000020: 0000 803f 0000 803f 0000 803f 0000 803f
00000030: 0000 803f 0000 803f 0000 803f 0000 803f
00000040: 0000 803f 0000 803f 0000 803f 0000 803f
00000050: 0000 803f 0000 803f 0000 803f 0000 803f
00000060: 0000 803f 0000 803f 0000 803f 0000 803f
00000070: 0000 803f 0000 803f 0000 803f 0000 803f

residual_blocks.0.conv1.weight f4 [32, 32, 2, 2]
0.0053413543 -0.07214655 -0.062384404 -0.04292061 0.01703429 0.05173143 0.009826485 0.05774133
-0.06323842 -0.033846952 0.04876092 -0.07703583 -0.051824637 -0.07211264 0.07862036 -0.0780405
-0.03673537 -0.04534199 0.031954117 -0.044936925 -0.051141247 0.052629676 0.006968739 0.031624623
0.016825126 -0.044738986 0.05421524 -0.060449645 0.002290323 0.07196318 0.048896864 -0.07467293
-0.06419533 -0.025831318 0.024787141 -0.047602896 -0.003806482 0.065538116 0.044708595 -0.026640043
0.013389822 -0.046871424 0.031560265 0.08246051 -0.05823392 0.009509488 -0.08185195 -0.001889833
-0.016663367 0.036516197 -0.016836707 -0.043535944 -0.0014362276 -0.008303139 -0.043390874 0.023224251
0.064063616 -0.07872948 -0.03965753 -0.06292986 -0.020500205 -0.033968505 0.013282084 0.015721312
-0.06454638 -0.021145158 -0.07749483 -0.000237213 -0.0015858595 0.047741 -0.031673253 0.087951966
-0.031182313 0.023590328 0.0031125552 0.069153324 0.0043144356 0.017320858 -0.025421409 0.069732785
0.043439798 0.006870621 -0.055877164 0.02481755 -0.086113155 -0.006364606 0.030257285 0.08695299
-0.021952217 -0.0039595594 -0.050272875 0.087057814 -0.042852376 -0.06038693 -0.03828848 -0.046545167
0.057176992 -0.026916074 -0.021063477 -0.055725373 -0.03278418 0.0035034146 -0.02780516 0.029154902
0.061085977 -0.0709566 -0.021707345 0.0066374014 0.037773144 0.034882702 -0.031368528 -0.04441964
0.021885056 -0.0056005362 -0.024126722 -0.04625801 -0.06493236 -0.019697972 -0.049978882 -0.012961557
-0.080846675 0.05160893 -0.08430298 -0.046728358 0.06393629 0.024600588 0.049992885 -0.029442977
-0.069819376 0.049107946 -0.048772503 -0.05047265 -0.04824869 0.05268378 -0.02234548 0.03388068
-1.9545601e-05 -0.004715021 0.07047021 -0.0672728 -0.035230383 0.040269513 0.016232405 0.08813081
-0.050174367 0.081069276 0.04360415 0.08398656 0.02953357 -0.088352 -0.034469295 -0.07278185
0.05358958 0.040489517 0.03969074 -0.0034749128 0.024969816 0.025021667 -0.07809069 -0.0017405489
0.0009389159 -0.08507046 0.013165232 0.054576766 -0.04517511 -0.014454272 -0.05311572 -0.042588208
0.072587766 -0.07401592 0.03934991 0.059752945 0.054651618 0.05334656 -0.06674759 0.023387771
-0.012296501 0.026388584 0.0062136254 -0.08787307 0.019127946 -0.07374742 0.005093931 0.051012784
0.06249993 0.08465779 -0.017316297 -0.06278686 -0.08001142 -0.05829575 0.005244817 -0.047405783
0.0091994135 0.07827419 0.020980142 -0.0001384524 0.032744814 0.05800325 0.071921706 0.03553507
0.029234866 -0.06552331 0.03247718 -0.029040664 0.0154338805 -0.056003097 -0.03174886 -0.0128175095
-0.06341474 0.030138146 0.080678076 -0.061545104 -0.031994577 0.08772437 -0.008489966 0.05367438
0.03255613 -0.06974872 -0.05043552 0.018868163 -0.042593975 -0.073994294 -0.016955908 0.00014103389
0.017333208 -0.03645423 0.08035899 0.07499451 -0.08205638 0.042718295 0.056669038 -0.06261298
0.02833482 0.086313374 0.068055116 -0.08251689 -0.02622968 -0.08768695 -0.05004013 -0.06307973
0.022642782 -0.05758155 0.011063516 0.064160146 0.085655116 -0.046775278 0.015645469 0.07257275
-0.025657116 0.007104041 -0.040296517 0.06498626 -0.08461217 0.004128305 0.0001088337 0.048004426
00000000: 8706 af3b 92c1 93bd ca86 7fbd 86cd 2fbd
00000010: 7f8b 8b3c 56e4 533d 44ff 203c 2c82 6c3d
00000020: 2583 81bd 1aa3 0abd 88b9 473d f6c4 9dbd
00000030: 1246 54bd cbaf 93bd b603 a13d b3d3 9fbd
00000040: d477 16bd 86b8 39bd 52e2 023d c80f 38bd
00000050: 7c79 51bd 3792 573d 055a e43b d288 013d
00000060: d9d4 893c 3a40 37bd cd10 5e3d 0c9a 77bd
00000070: 3e19 163b 6f61 933d 1448 483d 1fee 98bd
00000080: d778 83bd 339c d3bc 670e cb3c 41fb 42bd
00000090: 2c76 79bb d938 863d 5c20 373d 383c dabc
000000a0: fc60 5b3c 40fc 3fbd 5645 013d 0ee1 a83d
000000b0: b186 6ebd afcd 1b3c ffa1 a7bd 46b4 f7ba
000000c0: 9d81 88bc 0292 153d 22ed 89bc bf52 32bd
000000d0: cd3f bcba e409 08bc a1ba 31bd c940 be3c
000000e0: c933 833d ec3c a1bd ef6f 22bd 5fe1 80bd
000000f0: 0cf0 a7bc 8f22 0bbd 199d 593c fbc9 803c
00000100: e430 84bd 9c38 adbc 9cb5 9ebd 61bc 78b9
00000110: 9ddc cfba 118c 433d d0bb 01bd 2920 b43d
00000120: 0d72 ffbc 8140 c13c 03fc 4b3b 42a0 8d3d
00000130: 1c60 8d3b 79e4 8d3c 8f40 d0bc 10d0 8e3d
00000140: eeed 313d f222 e13b 74df 64bd 2d4e cb3c
00000150: 185c b0bd 2f8e d0bb 20de f73c 6914 b23d
00000160: 23d5 b3bc 31bf 81bb eeea 4dbd 5e4b b23d
00000170: f985 2fbd 4958 77bd 62d4 1cbd 25a6 3ebd
00000180: 6c32 6a3d 197f dcbc 508d acbc 4a40 64bd
00000190: b448 06bd 8b99 653b a6c7 e3bc 43d6 ee3c
000001a0: 4a35 7a3d b251 91bd 9ad3 b1bc 8f7e d93b
000001b0: 03b8 1a3d 2ae1 0e3d 497c 00bd 5ef1 35bd
000001c0: 4a48 b33c b484 b7bb 67a5 c5bc 0a79 3dbd
000001d0: 42fb 84bd a45d a1bc a8b6 4cbd b65c 54bc
000001e0: f192 a5bd e363 533d 0aa7 acbd 3c66 3fbd
000001f0: 08f1 823d 2c87 c93c 57c5 4c3d 6632 f1bc
00000200: 76fd 8ebd 6a25 493d adc5 47bd 69bc 4ebd
00000210: 6ba0 45bd f3ca 573d de0d b7bc 78c6 0a3d
00000220: dcf5 a3b7 7680 9abb af52 903d 52c6 89bd
00000230: bc4d 10bd a5f1 243d d2f9 843c ed7d b43d
00000240: a383 4dbd a607 a63d 449a 323d 2501 ac3d
00000250: 63f0 f13c e5f1 b4bd ad2f 0dbd a70e 95bd
00000260: bf80 5b3d 56d8 253d c292 223d 5dbb 63bb
00000270: 808d cc3c 3dfa cc3c 03ee 9fbd 2123 e4ba
00000280: 9421 763a 6c39 aebd fcb2 573c e38b 5f3d
00000290: 8909 39bd 9cd1 6cbc df8f 59bd f970 2ebd
000002a0: e5a8 943d a995 97bd 5f2d 213d 81bf 743d
000002b0: 60da 5f3d ec81 5a3d f6b2 88bd b697 bf3c
000002c0: 4377 49bc df2c d83c ab9b cb3b ccf6 b3bd
000002d0: 36b2 9c3c e308 97bd feea a63b c8f2 503d
000002e0: edff 7f3d 1061 ad3d e8da 8dbc 6696 80bd
000002f0: 07dd a3bd 86c7 6ebd b7dc ab3b 912c 42bd
00000300: 23b9 163c 384e a03d 8cde ab3c 882d 11b9
00000310: 6d1f 063d d194 6d3d b04b 933d 398d 113d
00000320: f57d ef3c 1631 86bd cb06 053d b0e6 edbc
00000330: 63de 7c3c 8163 65bd 180b 02bd 8800 52bc
00000340: 96df 81bd 46e4 f63c 8c3a a53d b816 7cbd
00000350: bf0c 03bd d6a8 b33d 8019 0bbc abd9 5b3d
00000360: 9459 053d 6bd8 8ebd 7a95 4ebd 6891 9a3c
00000370: 0577 2ebd 528a 97bd 1ee7 8abc 7fe2 1339
00000380: 5ffe 8d3c 0851 15bd 4193 a43d b996 993d
00000390: 2d0d a8bd 61f9 2e3d cb1d 683d 3c3b 80bd
000003a0: 6d1e e83c 11c5 b03d 7b60 8b3d 9dfe a8bd
000003b0: a0df d6bc 3795 b3bd e1f6 4cbd f22f 81bd
000003c0: 5b7d b93c a2da 6bbd c043 353c 6566 833d
000003d0: f36b af3d 6f97 3fbd ed2a 803c 06a1 943d
000003e0: df2e d2bc 04c9 e83b f60d 25bd 8417 853d
000003f0: 2549 adbd bb46 873b a63d e438 4aa0 443d

residual_blocks.0.conv1.bias f4 [32]
0.025445275 0.06934944 0.03753515 0.06497122 -0.06900025 -0.0065482818 0.060112447 -0.0065471544
0.07033662 -0.061610967 -0.016460568 -0.053301044 0.009713879 0.07998171 -0.0062708817 -0.048611015
-0.0459329 0.006648739 -0.06371743 0.06261163 0.0441971 -0.062209062 -0.05863384 -0.02001677
0.049822707 0.012937944 -0.06288823 0.0014361328 0.079705276 0.07705315 -0.071889766 -0.024704238
00000000: 9c72 d03c 1407 8e3d 75be 193d a20f 853d
00000010: 0150 8dbd f892 d6bb 7838 763d 8389 d6bb
00000020: a50c 903d c85b 7cbd 50d8 86bc 3252 5abd
00000030: f626 1f3c 73cd a33d f87b cdbb 581c 47bd
00000040: 2324 3cbd aadd d93b 497e 82bd 873a 803d
00000050: 0508 353d eece 7ebd 0a2a 70bd 36fa a3bc
00000060: e512 4c3d acf9 533c 8bcb 80bd 9f3c bc3a
00000070: 853c a33d 0bce 9d3d f13a 93bd 8b60 cabc

residual_blocks.0.bn1.weight f4 [32]
1.0 1.0 1.0 1.0 1.0 1.0 1.0 1.0
1.0 1.0 1.0 1.0 1.0 1.0 1.0 1.0
1.0 1.0 1.0 1.0 1.0 1.0 1.0 1.0
1.0 1.0 1.0 1.0 1.0 1.0 1.0 1.0
00000000: 0000 803f 0000 803f 0000 803f 0000 803f
00000010: 0000 803f 0000 803f 0000 803f 0000 803f
00000020: 0000 803f 0000 803f 0000 803f 0000 803f
00000030: 0000 803f 0000 803f 0000 803f 0000 803f
00000040: 0000 803f 0000 803f 0000 803f 0000 803f
00000050: 0000 803f 0000 803f 0000 803f 0000 803f
00000060: 0000 803f 0000 803f 0000 803f 0000 803f
00000070: 0000 803f 0000 803f 0000 803f 0000 803f

residual_blocks.0.bn1.bias f4 [32]
0.0 0.0 0.0 0.0 0.0 0.0 0.0 0.0
0.0 0.0 0.0 0.0 0.0 0.0 0.0 0.0
0.0 0.0 0.0 0.0 0.0 0.0 0.0 0.0
0.0 0.0 0.0 0.0 0.0 0.0 0.0 0.0
00000000: 0000 0000 0000 0000 0000 0000 0000 0000
00000010: 0000 0000 0000 0000 0000 0000 0000 0000
00000020: 0000 0000 0000 0000 0000 0000 0000 0000
00000030: 0000 0000 0000 0000 0000 0000 0000 0000
00000040: 0000 0000 0000 0000 0000 0000 0000 0000
00000050: 0000 0000 0000 0000 0000 0000 0000 0000
00000060: 0000 0000 0000 0000 0000 0000 0000 0000
00000070: 0000 0000 0000 0000 0000 0000 0000 0000

residual_blocks.0.bn1.running_mean f4 [32]
0.0 0.0 0.0 0.0 0.0 0.0 0.0 0.0
0.0 0.0 0.0 0.0 0.0 0.0 0.0 0.0
0.0 0.0 0.0 0.0 0.0 0.0 0.0 0.0
0.0 0.0 0.0 0.0 0.0 0.0 0.0 0.0
00000000: 0000 0000 0000 0000 0000 0000 0000 0000
00000010: 0000 0000 0000 0000 0000 0000 0000 0000
00000020: 0000 0000 0000 0000 0000 0000 0000 0000
00000030: 0000 0000 0000 0000 0000 0000 0000 0000
00000040: 0000 0000 0000 0000 0000 0000 0000 0000
00000050: 0000 0000 0000 0000 0000 0000 0000 0000
00000060: 0000 0000 0000 0000 0000 0000 0000 0000
00000070: 0000 0000 0000 0000 0000 0000 0000 0000

residual_blocks.0.bn1.running_var f4 [32]
1.0 1.0 1.0 1.0 1.0 1.0 1.0 1.0
1.0 1.0 1.0 1.0 1.0 1.0 1.0 1.0
1.0 1.0 1.0 1.0 1.0 1.0 1.0 1.0
1.0 1.0 1.0 1.0 1.0 1.0 1.0 1.0
00000000: 0000 803f 0000 803f 0000 803f 0000 803f
00000010: 0000 803f 0000 803f 0000 803f 0000 803f
00000020: 0000 803f 0000 803f 0000 803f 0000 803f
00000030: 0000 803f 0000 803f 0000 803f 0000 803f
00000040: 0000 803f 0000 803f 0000 803f 0000 803f
00000050: 0000 803f 0000 803f 0000 803f 0000 803f
00000060: 0000 803f 0000 803f 0000 803f 0000 803f
00000070: 0000 803f 0000 803f 0000 803f 0000 803f

residual_blocks.0.conv2.weight f4 [32, 32, 2, 2]
-0.03785807 0.012975676 0.052198596 -0.05956413 0.01600478 -0.058173534 -0.064496644 -0.07128567
0.00044617706 0.052031662 -0.06810424 0.076128565 0.07774061 0.07043345 -0.018841527 0.059258733
-0.08331609 -0.046402447 0.04859012 -0.039376948 0.049719606 0.040933345 -0.065316394 -0.0038075147
-0.07598328 -0.08674401 -0.029041475 0.010104349 -0.07536202 -0.07187 -0.05179464 -0.06804047
0.033992466 0.07695562 -0.012056221 0.038259096 0.030960906 0.008860648 0.015003572 0.01381618
-0.042698678 0.054004177 -0.010950889 -0.0105031 0.0021930165 0.020268472 0.029308233 -0.08011399
-0.06978522 0.02808709 0.08497426 -0.07050179 0.029011087 0.04119178 0.06705156 -0.059038334
0.06091295 0.059875634 -0.020322198 0.0784346 0.067277126 -0.0006310753 0.013307614 0.08645862
-0.016078684 -0.061549213 0.07436884 0.038924154 0.018471636 0.037449107 0.08415167 0.044241577
-0.0016122644 -0.046936132 -0.023335867 -0.06767586 0.045968197 0.07328558 0.062775694 0.030688753
-0.032403085 0.03149557 0.011073578 0.035309017 -0.03437612 -0.016800376 0.062636204 0.018600848
-0.07317006 0.002276446 0.024092045 0.054848645 0.035328425 -0.020904647 0.04621584 -0.075240314
-0.03287939 0.008907589 -0.04630435 -0.002172628 -0.080476336 -0.04725843 0.045258507 -0.014041981
0.08693623 -0.0292332 -0.03700347 0.037708364 -0.081734 -0.0014810297 -0.026554305 0.06530798
0.036398344 0.008341378 0.08061651 0.07637323 -0.04063899 0.06112468 -0.019713176 -0.04851389
0.04495428 0.040023353 0.03968483 0.02054524 0.019427717 0.069445886 0.07783455 -0.07053348
0.076650724 0.0009910831 0.027353631 -0.06958759 -0.047383413 -0.044543907 -0.041838795 -0.04283949
0.0548855 0.013623378 -0.015423681 -0.006054542 0.047076628 -0.08291028 0.017011046 0.08347799
0.042860646 0.02248743 0.037760045 -0.06127104 -0.013000079 0.0026084052 0.03528713 0.060660463
-0.019081565 -0.02140473 0.040099468 0.008058467 0.07918541 -0.012299072 -0.052562818 -0.0138096465
-0.07208035 0.022320012 -0.0019822612 -0.016430896 0.05087698 0.08254732 0.0045617744 0.021496251
-0.011143922 -0.015823433 0.043810394 0.0029959138 0.032558758 0.06953807 -0.04473912 -0.061224427
0.064172685 -0.037226982 -0.07434609 0.01089947 0.032991216 -0.011855392 0.08238122 -0.07963845
-0.03822659 -0.037291195 0.020522302 0.029203087 -0.082108475 0.007127306 0.017070033 0.025991319
0.028537093 -0.074688576 0.051733084 0.06734443 -0.022879543 0.04992959 0.03978145 -0.05162403
-0.033520337 0.04379733 -0.005976929 -0.07642645 -0.0021572865 -0.08374351 -0.034415692 -0.0064954613
-0.050760116 -0.0028709064 -0.06690342 -0.07985887 0.026082609 -0.07511967 -0.005867716 -0.0068447217
-0.021558523 -0.015473256 0.052245528 0.050040595 -0.05020644 0.017774085 0.072874725 0.051307812
-0.07757695 -0.026606008 0.036377937 -0.027653843 -0.074030064 0.05091585 -0.07303327 -0.08026797
-0.064579464 0.086246036 0.06347536 -0.011616725 0.06699319 -0.058038622 0.018329896 0.04767605
0.04083233 -0.026575875 -0.019628303 0.045653738 0.07091085 -0.02463871 -0.051066384 -0.087612875
-0.015981147 -0.024846736 -0.0040931124 -0.0552983 0.053611718 -0.028733477 0.017690044 0.020123001
00000000: 1011 1bbd ee97 543c 32ce 553d 84f9 73bd
00000010: 751c 833c 5f47 6ebd d116 84bd 39fe 91bd
00000020: dfec e939 271f 553d 3c7a 8bbd 4be9 9b3d
00000030: 7836 9f3d 6a3f 903d 8c59 9abc 49b9 723d
00000040: a0a1 aabd 7e10 3ebd 6f06 473d b949 21bd
00000050: c9a6 4b3d b9a9 273d 9ac4 85bd 7f87 79bb
00000060: 1f9d 9bbd d8a6 b1bd 63e8 edbc b68c 253c
00000070: 6757 9abd 9430 93bd 9e26 54bd cd58 8bbd
00000080: af3b 0b3d e89a 9d3d 7587 45bc 92b5 1c3d
00000090: baa1 fd3c 402c 113c 8bd1 753c 425d 623c
000000a0: cfe4 2ebd 7c33 5d3d 5c6b 33bc 3215 2cbc
000000b0: b6b8 0f3b 110a a63c d217 f03c ce12 a4bd
000000c0: 8eeb 8ebd e616 e63c fc06 ae3d 3e63 90bd
000000d0: a9a8 ed3c b6b8 283d 5452 893d 2ed2 71bd
000000e0: dc7f 793d 2740 753d bd7a a6bc 52a2 a03d
000000f0: 97c8 893d bf6e 25ba 2e08 5a3c 3811 b13d
00000100: 72b7 83bc 071b 7cbd b14e 983d ef6e 1f3d
00000110: d451 973c 3c64 193d b657 ac3d a836 353d
00000120: 9e52 d3ba 1a40 40bd dc2a bfbc a499 8abd
00000130: 2649 3c3d c016 963d 8b90 803d fb66 fb3c
00000140: 19b9 04bd 8001 013d f46d 353c 30a0 103d
00000150: f9cd 0cbd f1a0 89bc 6947 803d ce60 983c
00000160: 2fda 95bd 6d30 153b ae5c c53c f9a8 603d
00000170: 8ab4 103d 3940 abbc d24c 3d3d 9817 9abd
00000180: 8aac 06bd 23f1 113c a1a9 3dbd a662 0ebb
00000190: c7d0 a4bd 0e92 41bd fc60 393d 5610 66bc
000001a0: 9f0b b23d 777a efbc f390 17bd 1674 1a3d
000001b0: 2864 a7bd 1c1f c2ba 6a88 d9bc 31c0 853d
000001c0: 6e16 153d 46aa 083c 451a a53d 9169 9c3d
000001d0: 1275 26bd df5d 7a3d 877d a1bc 80b6 46bd
000001e0: fb21 383d 87ef 233d 8f8c 223d 7e4e a83c
000001f0: e026 9f3c a539 8e3d b867 9f3d db73 90bd
00000200: 0efb 9c3d 3be7 813a b914 e03c f083 8ebd
00000210: 1c15 42bd ac73 36bd 285f 2bbd 7678 2fbd
00000220: 9ecf 603d 9734 5f3c 9bb3 7cbc 2e65 c6bb
00000230: 6cd3 403d ddcc a9bd c05a 8b3c 82f6 aa3d
00000240: a58e 2f3d 8f37 b83c 47aa 1a3d 58f7 7abd
00000250: 49fe 54bc c7f1 2a3b 3d89 103d 1b77 783d
00000260: f150 9cbc f958 afbc 573f 243d a907 043c
00000270: f62b a23d 0c82 49bc 1c4c 57bd db41 62bc
00000280: dd9e 93bd 75d8 b63c d3e8 01bb 169a 86bc
00000290: 6164 503d 920e a93d f07a 953b e818 b03c
000002a0: ff94 36bc 25a0 81bc 8772 333d 1857 443b
000002b0: 555c 053d fa69 8e3d 5e40 37bd 77c6 7abd
000002c0: f86c 833d 527b 18bd c342 98bd b193 323c
000002d0: cc21 073d 1e3d 42bc 7cb7 a83d 7c19 a3bd
000002e0: 7c93 1cbd a7be 18bd 631e a83c 503b ef3c
000002f0: 7d28 a8bd 2d8c e93b 74d6 8b3c bfeb d43c
00000300: 9fc6 e93c 53f6 98bd 12e6 533d e0eb 893d
00000310: e16d bbbc f882 4c3d e0f1 223d b873 53bd
00000320: 9f4c 09bd d464 333d 1dda c3bb 7885 9cbd
00000330: 4361 0dbb b881 abbd 78f7 0cbd e1d7 d4bb
00000340: d7e9 4fbd d125 3cbb a904 89bd 0c8d a3bd
00000350: 32ab d53c 57d8 99bd f845 c0bb b049 e0bb
00000360: 809b b0bc 8a83 7dbc 68ff 553d 5ef7 4c3d
00000370: 45a5 4dbd f59a 913c 583f 953d 2428 523d
00000380: aae0 9ebd d8f4 d9bc 0801 153d 508a e2bc
00000390: 139d 97bd 238d 503d 7892 95bd 8963 a4bd
000003a0: 3d42 84bd c3a1 b03d 5fff 813d 1354 3ebc
000003b0: ba33 893d e8b9 6dbd 9428 963c f647 433d
000003c0: cd3f 273d a6b5 d9bc 89cb a0bc 6aff 3a3d
000003d0: b539 913d 1fd7 c9bc fc2a 51bd 616e b3bd
000003e0: e5ea 82bc 628b cbbc 841f 86bb 7880 62bd
000003f0: f697 5b3d 7862 ebbc b6ea 903c fed8 a43c

residual_blocks.0.conv2.bias f4 [32]
0.006803165 -0.0808928 -0.040574003 0.0149142 -0.049801495 0.06992114 0.006641648 -0.027023263
0.066630945 -0.08170521 0.06912943 -0.018251019 0.040337063 0.0026076254 -0.013270051 0.049409233
0.044613976 0.02858552 -0.020579431 -0.040788297 0.003925294 0.029371064 0.06708626 0.07935792
0.054993767 -0.08565968 -0.016567651 0.028058778 -0.059336934 0.041016847 -0.010105697 -0.04969439
00000000: 16ed de3b 20ab a5bd ed30 26bd b05a 743c
00000010: a7fc 4bbd d132 8f3d 2ea2 d93b e45f ddbc
00000020: ce75 883d 1055 a7bd bb93 8d3d 2983 95bc
00000030: 7a38 253d b2e4 2a3b a16a 59bc 5661 4a3d
00000040: 25bd 363d 2e2c ea3c 3296 a8bc a111 27bd
00000050: c19f 803b 969b f03c 8564 893d 6886 a23d
00000060: 2541 613d 586e afbd e2b8 87bc 86db e53c
00000070: 490b 73bd 4801 283d 5e92 25bc 588c 4bbd

residual_blocks.0.bn2.weight f4 [32]
1.0 1.0 1.0 1.0 1.0 1.0 1.0 1.0
1.0 1.0 1.0 1.0 1.0 1.0 1.0 1.0
1.0 1.0 1.0 1.0 1.0 1.0 1.0 1.0
1.0 1.0 1.0 1.0 1.0 1.0 1.0 1.0
00000000: 0000 803f 0000 803f 0000 803f 0000 803f
00000010: 0000 803f 0000 803f 0000 803f 0000 803f
00000020: 0000 803f 0000 803f 0000 803f 0000 803f
00000030: 0000 803f 0000 803f 0000 803f 0000 803f
00000040: 0000 803f 0000 803f 0000 803f 0000 803f
00000050: 0000 803f 0000 803f 0000 803f 0000 803f
00000060: 0000 803f 0000 803f 0000 803f 0000 803f
00000070: 0000 803f 0000 803f 0000 803f 0000 803f

residual_blocks.0.bn2.bias f4 [32]
0.0 0.0 0.0 0.0 0.0 0.0 0.0 0.0
0.0 0.0 0.0 0.0 0.0 0.0 0.0 0.0
0.0 0.0 0.0 0.0 0.0 0.0 0.0 0.0
0.0 0.0 0.0 0.0 0.0 0.0 0.0 0.0
00000000: 0000 0000 0000 0000 0000 0000 0000 0000
00000010: 0000 0000 0000 0000 0000 0000 0000 0000
00000020: 0000 0000 0000 0000 0000 0000 0000 0000
00000030: 0000 0000 0000 0000 0000 0000 0000 0000
00000040: 0000 0000 0000 0000 0000 0000 0000 0000
00000050: 0000 0000 0000 0000 0000 0000 0000 0000
00000060: 0000 0000 0000 0000 0000 0000 0000 0000
00000070: 0000 0000 0000 0000 0000 0000 0000 0000

residual_blocks.0.bn2.running_mean f4 [32]
0.0 0.0 0.0 0.0 0.0 0.0 0.0 0.0
0.0 0.0 0.0 0.0 0.0 0.0 0.0 0.0
0.0 0.0 0.0 0.0 0.0 0.0 0.0 0.0
0.0 0.0 0.0 0.0 0.0 0.0 0.0 0.0
00000000: 0000 0000 0000 0000 0000 0000 0000 0000
00000010: 0000 0000 0000 0000 0000 0000 0000 0000
00000020: 0000 0000 0000 0000 0000 0000 0000 0000
00000030: 0000 0000 0000 0000 0000 0000 0000 0000
00000040: 0000 0000 0000 0000 0000 0000 0000 0000
00000050: 0000 0000 0000 0000 0000 0000 0000 0000
00000060: 0000 0000 0000 0000 0000 0000 0000 0000
00000070: 0000 0000 0000 0000 0000 0000 0000 0000

residual_blocks.0.bn2.running_var f4 [32]
1.0 1.0 1.0 1.0 1.0 1.0 1.0 1.0
1.0 1.0 1.0 1.0 1.0 1.0 1.0 1.0
1.0 1.0 1.0 1.0 1.0 1.0 1.0 1.0
1.0 1.0 1.0 1.0 1.0 1.0 1.0 1.0
00000000: 0000 803f 0000 803f 0000 803f 0000 803f
00000010: 0000 803f 0000 803f 0000 803f 0000 803f
00000020: 0000 803f 0000 803f 0000 803f 0000 803f
00000030: 0000 803f 0000 803f 0000 803f 0000 803f
00000040: 0000 803f 0000 803f 0000 803f 0000 803f
00000050: 0000 803f 0000 803f 0000 803f 0000 803f
00000060: 0000 803f 0000 803f 0000 803f 0000 803f
00000070: 0000 803f 0000 803f 0000 803f 0000 803f

policy_conv.weight f4 [2, 32, 1, 1]
0.06827056 0.12468858 -0.067522794 0.14713398 0.01833761 0.06881297 -0.105545126 0.0894841
0.009114256 -0.004914702 -0.1410399 -0.027545957 -0.06691998 0.09541806 0.10785033 0.16008285
-0.13650721 -0.16378461 -0.07750696 0.06169683 0.00933108 -0.0020611072 -0.0372925 0.1481198
-0.16146553 0.16009632 0.13300447 0.08417746 0.011836858 -0.101880565 0.013874679 -0.15630725
0.10472442 0.02792117 0.108342476 -0.09027016 0.061979383 0.16356212 0.02604572 -0.09942399
0.12113132 0.019524274 -0.0015820662 0.044673193 0.10887351 -0.16062415 0.12475621 -0.108885266
0.016396515 0.106318794 0.13746387 0.07807345 0.013062973 -0.074773565 0.101178184 -0.0059846416
0.067332014 -0.11174255 -0.16517513 -0.13108926 -0.12782376 0.07552938 -0.079815805 0.082605965
00000000: 6fd1 8b3d ba5c ff3d 6449 8abd 4aaa 163e
00000010: c138 963c d0ed 8c3d 0b28 d8bd 7143 b73d
00000020: f653 153c 820b a1bb c36c 10be 0fa8 e1bc
00000030: 580d 89bd 8b6a c33d a2e0 dc3d c2ec 233e
00000040: 8cc8 0bbe 27b7 27be f8bb 9ebd d1b5 7c3d
00000050: 63e1 183c a413 07bb 05c0 18bd b8ac 173e
00000060: 3857 25be 4af0 233e 5332 083e 3b65 ac3d
00000070: 61ef 413c c2a6 d0bd 9f52 633c 020f 20be
00000080: c279 d63d f0ba e43c a9e2 dd3d 90df b8bd
00000090: 18de 7d3d d47c 273e d55d d53c ce9e cbbd
000000a0: b313 f83d 5ff1 9f3c 555d cfba 3dfb 363d
000000b0: 13f9 de3d a87a 24be 2f80 ff3d 3dff debd
000000c0: fc51 863c abbd d93d 54c3 0c3e f9e4 9f3d
000000d0: 1406 563c e222 99bd 8236 cf3d d01a c4bb
000000e0: 5ee5 893d 47d9 e4bd ab23 29be 433c 06be
000000f0: 3be4 02be 26af 9a3d 7876 a3bd 512d a93d

policy_conv.bias f4 [2]
-0.07313003 -0.10868123
00000000: 32c5 95bd 4494 debd

policy_bn.weight f4 [2]
1.0 1.0
00000000: 0000 803f 0000 803f

policy_bn.bias f4 [2]
0.0 0.0
00000000: 0000 0000 0000 0000

policy_bn.running_mean f4 [2]
0.0 0.0
00000000: 0000 0000 0000 0000

policy_bn.running_var f4 [2]
1.0 1.0
00000000: 0000 803f 0000 803f

policy_fc.weight f4 [74, 102]
-0.07594981 0.06251318 0.03419868 -0.015207294 0.094563425 -0.012577232 0.047449984 -0.03244062
-0.047389477 0.017751664 0.010308226 0.0520911 0.05112267 -0.014515469 0.008634847 -0.070379205
0.09504501 0.008183776 -0.0082950005 -0.024625503 -0.06315654 -0.052563272 0.026973544 0.06645571
0.0012551228 0.03910072 0.032695364 0.011069455 -0.0705481 0.00928183 0.033234216 0.06286818
-0.05235041 -0.087757714 -0.019491851 0.09444573 -0.011350968 -0.0018176412 0.09658349 -0.08395108
0.018565856 0.08525617 -0.046881232 -0.04391111 -0.05383323 0.08800716 0.022314016 -0.018390138
0.025157616 0.05828914 -0.0646642 -0.058057625 -0.069857106 8.8868386e-05 -0.071284525 0.007470504
-0.011811965 0.03617954 -0.03490736 0.014706567 -0.002009082 0.074094824 0.08238352 -0.07833943
-0.024165142 -0.008462893 0.016806737 0.019492924 -0.08340682 0.026652986 -0.014914827 -0.008625592
-0.045140136 -0.058945213 -0.09148877 0.09560848 0.0705024 -0.03618911 -0.009744762 0.055016343
0.03547808 -0.005249455 0.020037502 0.0038961982 0.011395149 -0.028911287 0.07062107 0.07671746
0.060521036 0.026003534 0.03485376 -0.055681847 -0.013852043 0.093772605 0.041030295 -0.05907839
0.056049183 0.09240368 -0.080389515 -0.08576308 0.03548803 -0.029029416 -0.010587094 0.036376633
-0.060367756 0.029952576 0.030221295 -0.0712829 -0.008217381 -0.01961633 0.01105627 0.03964019
0.09391266 -0.0065237586 0.021888416 -0.08668803 0.055772837 -0.002785373 -0.005246717 0.01867178
0.056642223 0.071087085 -0.0036314817 -0.028956752 0.029047273 0.025307152 0.0350795 0.010847656
-0.00054137834 0.047400728 0.042265885 -0.09333068 -0.01984547 0.02919071 -0.08608757 0.098845996
0.069698915 0.038788 0.045224354 0.061423223 0.007900387 0.035221733 -0.03439922 -0.0012790012
0.01056599 -0.07763088 0.047786005 0.026830321 0.06084019 -0.04099112 -0.059489448 0.07012414
0.035577644 0.034434523 -0.04307322 -0.043202277 0.052359734 -0.06238508 0.058714442 0.021389188
0.069693886 -0.01313746 -0.050962616 -0.07083037 -0.05324765 -0.07054942 -0.03141341 -0.0076694987
0.08992898 -0.08004393 -0.031476077 0.09757545 -0.07491138 -0.004877799 -0.07841433 -0.090549566
0.05684979 -0.09099999 -0.072798885 0.069288 0.042385347 0.03941683 -0.076891124 0.09734462
0.02766649 0.06436665 0.023710862 -0.059290357 0.052890927 0.035154324 -0.03153371 -0.0071804454
0.06813864 0.046604086 0.06343366 0.08307187 -0.064446434 0.083704285 -0.012616419 -0.018364584
0.08216173 0.0721462 -0.019971957 -0.035345268 0.095380485 -0.06622318 -0.08224885 0.04147982
-0.06409572 -0.03897733 -0.06103097 -0.012267875 0.028063277 0.07530634 0.047272835 -0.07835229
0.08318654 0.029892828 0.09727105 0.039949402 0.033200588 -0.017713727 0.02876876 -0.009054141
-0.06076579 -0.07028594 0.09493501 0.0391261 -0.06623192 0.060899645 -0.06732436 0.05363557
0.052129235 0.028404126 -0.06244478 -0.00070532865 -0.026037091 0.00918817 0.023115164 -0.018273283
-0.0018188569 -0.08704167 0.024163183 -0.008150821 0.0974056 0.03165413 -0.08332265 0.071840726
-0.02089663 0.07699577 0.02293941 -0.0020583142 0.08381705 0.07740612 0.04449845 -0.05818683
00000000: 938b 9bbd e906 803d ea13 0c3d 0428 79bc
00000010: 78aa c13d bc10 4ebc ea5a 423d 75e0 04bd
00000020: 781b 42bd f06b 913c d5e3 283c 7a5d 553d
00000030: 0166 513d 4ad2 6dbc 2c79 0d3c f922 90bd
00000040: f5a6 c23d 3f15 063c c1e7 07bc 6cbb c9bc
00000050: 3758 81bd 964c 57bd 9ff7 dc3c ee19 883d
00000060: ef82 a43a 1428 203d 93eb 053d a95c 353c
00000070: 867b 90bd d112 183c 9a20 083d 08c1 803d
00000080: 626d 56bd 51ba b3bd 60ad 9fbc c36c c13d
00000090: 69f9 39bc eb3d eeba 91cd c53d 8bee abbd
000000a0: 6c17 983c c99a ae3d 8906 40bd 23dc 33bd
000000b0: 3c80 5cbd 193d b43d e2cb b63c eaa6 96bc
000000c0: 5817 ce3c 98c0 6e3d aa6e 84bd d5cd 6dbd
000000d0: 3e11 8fbd da5e ba38 9ffd 91bd 21cb f43b
000000e0: f986 41bc ff30 143d 05fb 0ebd d0f3 703c
000000f0: cdaa 03bb 07bf 973d b1b8 a83d 6c70 a0bd
00000100: faf5 c5bc f2a7 0abc 48ae 893c a0af 9f3c
00000110: 32d1 aabd 5d57 da3c 525d 74bc 5b52 0dbc
00000120: dde4 38bd 8970 71bd 775e bbbd 61ce c33d
00000130: 9063 903d 083b 14bd 7fa8 1fbc d158 613d
00000140: 7751 113d 9f03 acbb b025 a43c 5c57 7f3b
00000150: b8b2 3a3c 5dd7 ecbc c8a1 903d 0b1e 9d3d
00000160: e8e4 773d 5d05 d53c d1c2 0e3d a612 64bd
00000170: aef3 62bc da0b c03d 620f 283d 2ffc 71bd
00000180: d493 653d 243e bd3d 42a3 a4bd 8ea4 afbd
00000190: e65b 113d 19cf edbc 7e75 2dbc aaff 143d
000001a0: 2e44 77bd 1b5f f53c a692 f73c c5fc 91bd
000001b0: 32a2 06bc 6db2 a0bc 5c25 353c c05d 223d
000001c0: 4855 c03d 41c5 d5bb 564f b33c 7e89 b1bd
000001d0: 0f72 643d ce8a 36bb a7ec abbb 90f5 983c
000001e0: ad01 683d 1b96 913d 27fe 6dbb b636 edbc
000001f0: 8cf4 ed3c f250 cf3c 86af 0f3d 5eba 313c
00000200: 49eb 0dba 4427 423d fe1e 2d3d 2824 bfbd
00000210: f892 a2bc 5b21 ef3c ae4e b0bd c56f ca3d
00000220: 4ebe 8e3d 2ae0 1e3d 2c3d 393d eb96 7b3d
00000230: a070 013c aa44 103d 32e6 0cbd 29a4 a7ba
00000240: f91c 2d3c f0fc 9ebd 42bb 433d 43cb db3c
00000250: 9033 793d 4ee6 27bd 35ab 73bd 3f9d 8f3d
00000260: ddb9 113d 370b 0d3d 8b6d 30bd dff4 30bd
00000270: 2977 563d 7f87 7fbd 8e7e 703d 6138 af3c
00000280: abbb 8e3d 803e 57bc 2dbe 50bd 830f 91bd
00000290: 351a 5abd 377c 90bd 59ab 00bd 6b50 fbbb
000002a0: af2c b83d 12ee a3bd 0fed 00bd a3d5 c73d
000002b0: 236b 99bd f2d5 9fbb b197 a0bd 0d72 b9bd
000002c0: 53db 683d 345e babd 9517 95bd dee6 8d3d
000002d0: 429c 2d3d 8b73 213d 1879 9dbd 9e5c c73d
000002e0: d6a4 e23c aad2 833d 483d c23c 72da 72bd
000002f0: 28a4 583d fbfd 0f3d 7e29 01bd f149 ebbb
00000300: 458c 8b3d ede3 3e3d 82e9 813d 9621 aa3d
00000310: 7efc 83bd 276d ab3d 19b5 4ebc 5371 96bc
00000320: 6944 a83d 63c1 933d 3b9c a3bc 33c6 10bd
00000330: d856 c33d 05a0 87bd 1672 a8bd bee6 293d
00000340: 9e44 83bd b1a6 1fbd 9cfb 79bd 32ff 48bc
00000350: f5e4 e53c 363a 9a3d 29a1 413d 2a77 a0bd
00000360: b45d aa3d cee1 f43c 0b36 c73d fca1 233d
00000370: 57fd 073d 611c 91bc 76ac eb3c d257 14bc
00000380: 8de5 78bd 13f2 8fbd 496d c23d b042 203d
00000390: 9aa4 87bd e871 793d 5be1 89bd f9b0 5b3d
000003a0: 7785 553d c5af e83c 19c6 7fbd cee5 38ba
000003b0: bd4b d5bc fa89 163c 035c bd3c dab1 95bc
000003c0: b666 eeba e742 b2bd def1 c53c 058b 05bc
000003d0: 967c c73d c3a7 013d 11a5 aabd 3b21 933d
000003e0: 692f abbc f5af 9d3d 6eeb bb3c c8e4 06bb
000003f0: 46a8 ab3d 1a87 9e3d 0244 363d 5055 6ebd

policy_fc.bias f4 [74]
-0.045264106 0.042263675 0.04999768 -0.092838384 0.082956925 -0.09305134 -0.027223235 -0.02883742
-0.007903633 -0.07648296 0.08274499 -0.0045836684 -0.03908853 -0.06426684 0.022543628 -0.051290564
-0.0966579 -0.09215314 -0.017883698 -0.05096192 -0.067320384 0.014528606 0.021472676 0.02314563
-0.047914296 -0.0673489 -0.09097419 -0.091923386 0.073107235 0.07462442 0.023949187 -0.027129233
-0.0078104325 -0.049934365 0.09135592 0.098568365 0.08499299 -0.0014957131 0.05083156 -0.028579125
0.08762962 -0.0077106813 0.08405362 0.04235142 0.09517456 0.08582919 0.08993821 -0.047932178
-0.072880544 -0.012100938 0.0017322076 -0.01487119 -0.074836746 -0.06916574 0.026992276 0.076597765
-0.06829013 0.012799078 -0.05002758 -0.06283676 -0.039946936 0.062038254 0.044066668 -0.030795086
-0.055106744 0.019498732 -0.052490905 -0.066342615 0.032380257 0.09829152 -0.055578638 -0.05301563
-0.045548346 -0.055902794
00000000: db66 39bd ad1c 2d3d 5eca 4c3d 0d22 bebd
00000010: 52e5 a93d b391 bebd 4303 dfbc 743c ecbc
00000020: 3d7e 01bc 19a3 9cbd 3576 a93d 9932 96bb
00000030: 4b1b 20bd 559e 83bd 6aad b83c 0e16 52bd
00000040: 94f4 c5bd c9ba bcbd d580 92bc 72bd 50bd
00000050: 45df 89bd 6409 6e3c 77e7 af3c e79b bd3c
00000060: c841 44bd 38ee 89bd ad50 babd 5442 bcbd
00000070: 3fb9 953d b0d4 983d 1631 c43c 203e debc
00000080: a8ee ffbb fa87 4cbd d018 bb3d 36de c93d
00000090: ce10 ae3d ce0b c4ba c134 503d c51e eabc
000000a0: 2977 b33d e2a9 fcbb 4e24 ac3d af78 2d3d
000000b0: e1ea c23d 37c7 af3d 8631 b83d 8854 44bd
000000c0: 6542 95bd 0343 46bc 3e0b e33a 4ba6 73bc
000000d0: 0244 99bd c4a6 8dbd e81e dd3c 4adf 9c3d
000000e0: b2db 8bbd 39b3 513c b8e9 4cbd 8fb0 80bd
000000f0: 669f 23bd d31b 7e3d 407f 343d fa45 fcbc
00000100: 9cb7 61bd cebb 9f3c b400 57bd a3de 87bd
00000110: 29a1 043d 104d c93d 6da6 63bd eb26 59bd
00000120: e790 3abd 54fa 64bd

value_conv.weight f4 [1, 32, 1, 1]
-0.071028166 0.15158145 0.122708485 0.15051402 -0.055513047 0.088305466 0.14545809 0.07594337
-0.16239454 0.07991116 -0.010000351 0.009237851 0.047620185 -0.115938455 0.043231096 0.04327339
0.11810891 0.00416885 0.10703011 -0.07216946 0.13179862 -0.070015356 -0.09589489 0.12001113
-0.14330639 -0.07716146 -0.007178999 0.022995932 -0.029484164 0.06287509 -0.022270247 0.058554236
00000000: 3777 91bd 2b38 1b3e 964e fb3d 5920 1a3e
00000010: a661 63bd 7fd9 b43d f7f2 143e 3388 9b3d
00000020: c14a 26be 76a8 a33d 83d8 23bc 5b5a 173c
00000030: 620d 433d 2471 edbd 1713 313d 703f 313d
00000040: 16e3 f13d d99a 883b 9a32 db3d 95cd 93bd
00000050: 38f6 063e 3664 8fbd 8a64 c4bd 65c8 f53d
00000060: e9be 12be d406 9ebd cf3d ebbb f761 bc3c
00000070: c688 f1bc a8c4 803d 1870 b6bc 91d6 6f3d

value_fc1.weight f4 [64, 72]
-0.09435982 0.09724714 -0.098346286 -0.07686846 -0.070933595 -0.024580969 0.09824652 0.0463804
-0.013675824 -0.02446175 -0.052296076 0.049370665 0.057990454 0.07787944 -0.025806628 -0.1076158
-0.10806734 -0.07926441 0.08192826 0.08607811 -0.015689755 0.05136854 0.032712977 0.10305449
-0.010855679 0.01889321 0.1120496 0.11296724 0.0865824 0.054735325 0.029028825 -0.07797896
-0.10859957 0.08330238 -0.10020889 0.11381641 -0.09700965 -0.047465246 -0.033502333 -0.015555967
0.05927849 0.03144922 -0.03945063 -0.022364762 -0.0051462566 -0.008772909 0.058064505 -0.03393281
-0.029669821 0.070271485 0.05093052 0.036556814 -0.050279506 0.057522412 -0.0721309 -0.055528812
0.09440339 0.03424031 -0.06672396 0.11399833 0.0845173 -0.00044171303 -0.09365464 -0.110026486
0.007641041 0.09922415 0.05924726 -0.07564751 -0.06188822 0.0886288 -0.015793435 0.030915627
-0.07872652 0.07010722 0.051536493 0.086159386 0.1061584 0.100782104 -0.06722607 -0.08841022
-0.01442223 0.082532644 0.091867976 0.025368595 -0.049697515 0.071053855 0.010278605 -0.08333027
-0.10303918 -0.0049255756 -0.1032416 -0.036930922 0.09575136 -0.042504787 -0.03553992 0.10191202
0.06751642 -0.028945247 0.037855808 -0.016940828 0.06541837 0.066095546 0.0866331 0.0081992475
-0.082488544 0.009961731 0.03802718 -0.045726944 -0.060295645 -0.021339174 -0.102378994 -0.10744863
-0.059801895 0.043769192 -0.07425692 0.01625875 0.11203391 0.05629216 0.025593266 -0.026812209
0.08627267 0.0018395694 0.098151974 -0.09650778 -0.013014076 0.014685072 0.066823155 0.09961257
-0.034297306 -0.038716234 -0.019898735 -0.07630903 -0.0773929 -0.08465785 -0.018653283 -0.09511289
0.013125779 0.015778853 0.10941816 -0.09950065 -0.003737077 -0.10558252 -0.070686646 -0.05925788
-0.03180137 0.079033025 0.024694668 0.10846538 0.062459227 0.009716534 -0.037417762 -0.0027721808
-0.09709396 -0.11778376 0.028038107 0.08501375 -0.09324952 0.022771535 0.012856461 0.007272228
-0.07879972 0.081109546 0.08545605 0.012519806 0.048953887 0.05105991 0.1121937 -0.017484423
0.0073811356 -0.08411511 -0.08846708 -0.037311707 0.075624846 0.063534126 -0.062372517 0.10883009
0.036941655 0.011801174 0.0021168957 0.08134539 0.044604756 0.043225374 -0.08717053 0.062027685
0.078493506 -0.08432296 0.09239486 -0.014638893 -0.0679089 0.105244696 0.08983279 -0.056692723
0.0149620045 0.056463078 -0.042700518 -0.06377022 0.029156249 -0.02691221 0.048049726 0.008759113
0.08665542 -0.019696023 0.014462101 -0.0329727 0.07882045 0.097362846 -0.11307103 0.037882615
0.063723266 -0.05180599 0.045675397 0.09008272 -0.07169145 -0.093851075 -0.06371614 -0.08808911
0.04129912 0.07061211 -0.10423573 0.008080577 -0.07195163 -0.08814798 0.099595755 0.014791016
-0.0016889647 -0.018102493 0.06220591 -0.011415179 -0.044584427 -0.07365005 0.052934673 -0.110657506
0.054024506 0.06761679 -0.05233759 0.016787525 0.07329243 -0.109203465 0.037882615 -0.032119904
0.086099535 0.019575454 0.09963747 -0.09663984 -0.07838186 0.041663945 -0.066239774 0.005571364
0.06589563 0.09162336 -0.0057642558 -0.0011925591 -0.030932795 0.029610423 -0.07512051 -0.0065072207
00000000: b93f c1bd 8229 c73d c769 c9bd 366d 9dbd
00000010: a245 91bd 075e c9bc 7935 c93d 60f9 3d3d
00000020: 9010 60bc 0264 c8bc 6934 56bd e538 4a3d
00000030: 6687 6d3d 417f 9f3d 6c68 d3bc ac65 dcbd
00000040: 6952 ddbd 6155 a2bd 01ca a73d b849 b03d
00000050: cd87 80bc d167 523d 0bfe 053d 3c0e d33d
00000060: 05dc 31bc efc5 9a3c 437a e53d 5e5b e73d
00000070: 1d52 b13d 2632 603d dccd ed3c 6fb3 9fbd
00000080: 7469 debd 709a aa3d 523a cdbd 9418 e93d
00000090: ffac c6bd eb6a 42bd be39 09bd 74de 7ebc
000000a0: 00ce 723d e6d0 003d fc96 21bd 4e36 b7bc
000000b0: eea1 a8bb 3fbc 0fbc 0cd5 6d3d 21fd 0abd
000000c0: 200e f3bc 7fea 8f3d 859c 503d 99bc 153d
000000d0: e2f1 4dbd 9f9c 6b3d 5eb9 93bd 2e72 63bd
000000e0: 9156 c13d 913f 0c3d 92a6 88bd f577 e93d
000000f0: 6817 ad3d b895 e7b9 01ce bfbd 9155 e1bd
00000100: b361 fa3b 0836 cb3d 41ad 723d 15ed 9abd
00000110: 817e 7dbd 0483 b53d 3c61 81bc c542 fd3c
00000120: 5f3b a1bd 6094 8f3d ee17 533d 5574 b03d
00000130: 9369 d93d d966 ce3d d2ad 89bd 6b10 b5bd
00000140: 384b 6cbc e006 a93d 4725 bc3d cdd1 cf3c
00000150: 9f8f 4bbd af84 913d 9867 283c 10a9 aabd
00000160: 3506 d3bd b966 a1bb 5570 d3bd e144 17bd
00000170: 4a19 c43d 8019 2ebd 4f92 11bd 40b7 d03d
00000180: 0c46 8a3d 951e edbc b10e 1b3d 7ec7 8abc
00000190: 11fa 853d 1a5d 873d b26c b13d 2356 063c
000001a0: c1ef a8bd 8736 233c 63c2 1b3d 2d4c 3bbd
000001b0: 91f8 76bd 7ecf aebc 14ac d1bd 070e dcbd
000001c0: d5f2 74bd 5347 333d 0314 98bd 1231 853c
000001d0: 0972 e53d 9c92 663d f8a8 d13c 47a5 dbbc
000001e0: baaf b03d b51d f13a e703 c93d dfa5 c5bd
000001f0: fe38 55bc a899 703c 94da 883d ad01 cc3d
00000200: 557b 0cbd ea94 1ebd ac02 a3bc e947 9cbd
00000210: 2b80 9ebd 1861 adbd c5ce 98bc 8cca c2bd
00000220: 820d 573c a742 813c a116 e03d ffc6 cbbd
00000230: bfe9 74bb a63b d8bd 29c4 90bd 64b8 72bd
00000240: 2742 02bd 11dc a13d 794c ca3c 1923 de3d
00000250: 3fd5 7f3d 1932 1f3c 5e43 19bd 7aad 35bb
00000260: 33d9 c6bd 9d38 f1bd 2cb0 e53c b01b ae3d
00000270: 9bf9 bebd 5f8b ba3c e8a3 523c df4b ee3b
00000280: bf61 a1bd c31c a63d 9503 af3d df1f 4d3c
00000290: df83 483d 3224 513d d0c5 e53d 7e3b 8fbc
000002a0: 74dd f13b 8b44 acbd 3a2e b5bd 29d4 18bd
000002b0: 33e1 9a3d 2e1e 823d 537a 7fbd 4fe2 de3d
000002c0: 2250 173d b659 413c 9ebb 0a3b 6998 a63d
000002d0: 7ab3 363d 170d 313d 7686 b2bd be10 7e3d
000002e0: 34c1 a03d 84b1 acbd 8439 bd3d f8d7 6fbc
000002f0: d213 8bbd 888a d73d 41fa b73d a136 68bd
00000300: 3223 753c d445 673d bde6 2ebd f699 82bd
00000310: 16d9 ee3c ff76 dcbc cacf 443d 6282 0f3c
00000320: 6678 b13d 8e59 a1bc 73f2 6c3c 620e 07bd
00000330: 9e6c a13d 2c66 c73d c991 e7bd cd2a 1b3d
00000340: 5881 823d 8532 54bd 2016 3b3d 4a7d b83d
00000350: f8d2 92bd fe34 c0bd 9c7d 82bd 1068 b4bd
00000360: 4429 293d 159d 903d 8b79 d5bd 6564 043c
00000370: 605b 93bd ee86 b4bd dcf8 cb3d 0456 723c
00000380: 4060 ddba ae4b 94bc a0cb 7e3d bb06 3bbc
00000390: 299e 36bd d6d5 96bd 07d2 583d 67a0 e2bd
000003a0: cd48 5d3d ac7a 8a3d f15f 56bd fe85 893c
000003b0: 571a 963d 11a6 dfbd cd2a 1b3d 2990 03bd
000003c0: f454 b03d b45c a03c bb0e cc3d 1ceb c5bd
000003d0: ab86 a0bd d0a7 2a3d b8a8 87bd fd8f b63b
000003e0: 4af4 863d 07a5 bb3d 15e2 bcbb a54f 9cba
000003f0: c666 fdbc 8f91 f23c c8d8 99bd 863a d5bb

value_fc1.bias f4 [64]
-0.110905945 0.03781602 -0.03482854 -0.087337404 0.019702135 0.06802989 -0.056111604 0.04206614
0.09790922 -0.07644238 0.06555015 0.005059209 -0.0019704916 -0.013950298 0.03200203 -0.070503935
0.012738394 0.035857625 0.07648832 0.06631135 -0.011621502 -0.011174858 0.01583002 -0.06902149
0.04967807 -0.029099379 0.052142058 -0.02149981 0.042253297 0.08403364 -0.027780619 0.093852796
0.023545688 0.06890098 -0.012657556 0.021398123 -0.034444623 0.015602286 0.043400913 -0.084981576
0.021847831 -0.08522721 0.07124357 0.039819203 0.053928986 0.072832875 -0.031662483 0.057866007
0.09648693 -0.01952155 0.004786913 -0.06417009 -0.08620565 0.07206431 0.008839908 0.10161962
0.053333987 0.06705846 -0.100223154 -0.05089316 0.0864797 -0.09602486 -0.07218151 -0.034023225
00000000: a822 e3bd f9e4 1a3d 5fa8 0ebd f4dd b2bd
00000010: 5f66 a13c 4153 8b3d 48d5 65bd 8b4d 2c3d
00000020: a184 c83d d38d 9cbd 283f 863d b9c7 a53b
00000030: 5d23 01bb ca8f 64bc 9014 033d 5e64 90bd
00000040: b2b4 503c 72df 123d e9a5 9c3d 3fce 873d
00000050: 1d68 3ebc c016 37bc f5ad 813c 245b 8dbd
00000060: 3b7b 4b3d d261 eebc e992 553d 5f20 b0bc
00000070: cb11 2d3d d419 ac3d 2e94 e3bc e535 c03d
00000080: e3e2 c03c f51b 8d3d a361 4fbc 1e4b af3c
00000090: ce15 0dbd bba0 7f3c 28c5 313d d20a aebd
000000a0: 39fa b23c 9a8b aebd 26e8 913d 7619 233d
000000b0: a4e4 5c3d 6729 953d 85b0 01bd e804 6d3d
000000c0: f19a c53d a8eb 9fbc 89db 9c3b 9c6b 83bd
000000d0: 968c b0bd 7496 933d 43d5 103c f31d d03d
000000e0: bd74 5a3d f255 893d cc41 cdbd 5975 50bd
000000f0: 451c b13d afa8 c4bd e6d3 93bd f05b 0bbd

value_fc2.weight f4 [1, 64]
-0.10316588 0.120596394 0.04784015 -0.038553253 -0.025406003 -0.11561535 -0.053318232 0.0022753775
0.058705017 -0.0651826 -0.023561567 0.09002875 -0.019618228 0.007788703 -0.005158648 0.0506254
0.06330082 0.028465495 0.019005105 -0.03503707 -0.0786839 -0.02007921 -0.040376022 0.09778476
0.016509071 -0.06555481 0.04363978 0.11205612 -0.02058354 0.09729457 -0.100541875 0.07638912
-0.12395789 0.06543584 0.09701927 0.04014902 0.07784666 0.0017233193 -0.038990706 0.107950345
0.003546372 -0.02007024 -0.11957276 0.11547546 -0.03721115 -0.05792412 0.070108965 0.072486624
0.028534219 0.066474125 0.098065406 0.030830935 -0.11333607 0.031108782 0.03323263 0.12376763
-0.0835595 -0.014548942 0.04165812 -0.03724067 0.016672224 -0.070563376 0.037458852 0.010312006
00000000: a248 d3bd 3efb f63d 08f4 433d 04ea 1dbd
00000010: 4020 d0bc bec7 ecbd 3864 5abd 801e 153b
00000020: ac74 703d 747e 85bd 3004 c1bc fe60 b83d
00000030: 68b6 a0bc 6038 ff3b e009 a9bb 945c 4f3d
00000040: dca3 813d 7830 e93c 98b0 9b3c 0883 0fbd
00000050: 0625 a1bd 287d a4bc 5461 25bd 6043 c83d
00000060: 083e 873c 9a41 86bd a0bf 323d ae7d e53d
00000070: d09e a8bc 6042 c73d e6e8 cdbd e671 9c3d
00000080: a2dd fdbd 3a03 863d 0ab2 c63d 4c73 243d
00000090: 126e 9f3d 00e1 e13a b8b4 1fbd 1215 dd3d
000000a0: 406a 683b 586a a4bc 90e2 f4bd 667e ec3d
000000b0: b86a 18bd d841 6dbd 4a95 8f3d de73 943d
000000c0: 98c0 e93c 9623 883d 84d6 c83d 2891 fc3c
000000d0: be1c e8bd d8d7 fe3c f01e 083d e279 fd3d
000000e0: 3e21 abbd b05e 6ebc b4a1 2a3d ac89 18bd
000000f0: 3094 883c 8883 90bd 746e 193d b0f3 283c
